…
No valid model requested.
python model.py -h
(/opt/carnd_p3/behavioral) root@ab70564d4946:/home/workspace/CarND-Behavioral-Cloning-P3/nvidia_reduced_dat
a# python ../model.py -m reduced_nvidia -d ../data
Using TensorFlow backend.
Training data will be taken from:  ../data
Output file is  model_reduced_nvidia  +.h5
Please confirm with "Y"!  :: Y
1 directory as input data found.
../data
_________________________________________________________________
Layer (type)                 Output Shape              Param #   
=================================================================
cropping2d_1 (Cropping2D)    (None, 50, 280, 3)        0         
_________________________________________________________________
lambda_1 (Lambda)            (None, 50, 280, 3)        0         
_________________________________________________________________
dropout_1 (Dropout)          (None, 50, 280, 3)        0         
_________________________________________________________________
conv2d_1 (Conv2D)            (None, 23, 138, 12)       912       
_________________________________________________________________
conv2d_2 (Conv2D)            (None, 10, 67, 18)        5418      
_________________________________________________________________
conv2d_3 (Conv2D)            (None, 6, 63, 24)         10824     
_________________________________________________________________
conv2d_4 (Conv2D)            (None, 4, 61, 32)         6944      
_________________________________________________________________
conv2d_5 (Conv2D)            (None, 2, 59, 32)         9248      
_________________________________________________________________
flatten_1 (Flatten)          (None, 3776)              0         
_________________________________________________________________
dropout_2 (Dropout)          (None, 3776)              0         
_________________________________________________________________
dense_1 (Dense)              (None, 50)                188850    
_________________________________________________________________
activation_1 (Activation)    (None, 50)                0         
_________________________________________________________________
dropout_3 (Dropout)          (None, 50)                0         
_________________________________________________________________
dense_2 (Dense)              (None, 25)                1275      
_________________________________________________________________
batch_normalization_1 (Batch (None, 25)                100       
_________________________________________________________________
activation_2 (Activation)    (None, 25)                0         
_________________________________________________________________
dense_3 (Dense)              (None, 10)                260       
_________________________________________________________________
activation_3 (Activation)    (None, 10)                0         
_________________________________________________________________
dense_4 (Dense)              (None, 1)                 11        
=================================================================
Total params: 223,842
Trainable params: 223,792
Non-trainable params: 50
_________________________________________________________________
Start training with data from directory:  ../data
Epoch 1/10
2019-08-10 23:25:44.718881: W tensorflow/core/platform/cpu_feature_guard.cc:45] The TensorFlow library wasn't compiled to use SSE4.1 instructions, but these are available on your machine and could speed up CPU computations.
…
