(/opt/carnd_p3/behavioral) root@ab70564d4946:/home/workspace/CarND-Behavioral-Cloning-P3/nvidia_data# python ../model.py -d ../data -m nvidia
Using TensorFlow backend.
Training data will be taken from:  ../data
Output file is  model_nvidia  +.h5
Please confirm with "Y"!  :: Y
1 directory as input data found.
../data
_________________________________________________________________
Layer (type)                 Output Shape              Param #   
=================================================================
cropping2d_1 (Cropping2D)    (None, 50, 280, 3)        0         
_________________________________________________________________
lambda_1 (Lambda)            (None, 50, 280, 3)        0         
_________________________________________________________________
dropout_1 (Dropout)          (None, 50, 280, 3)        0         
_________________________________________________________________
conv2d_1 (Conv2D)            (None, 23, 138, 24)       1824      
_________________________________________________________________
conv2d_2 (Conv2D)            (None, 10, 67, 36)        21636     
_________________________________________________________________
conv2d_3 (Conv2D)            (None, 6, 63, 48)         43248     
_________________________________________________________________
conv2d_4 (Conv2D)            (None, 4, 61, 64)         27712     
_________________________________________________________________
conv2d_5 (Conv2D)            (None, 2, 59, 64)         36928     
_________________________________________________________________
flatten_1 (Flatten)          (None, 7552)              0         
_________________________________________________________________
dropout_2 (Dropout)          (None, 7552)              0         
_________________________________________________________________
dense_1 (Dense)              (None, 100)               755300    
_________________________________________________________________
activation_1 (Activation)    (None, 100)               0         
_________________________________________________________________
dropout_3 (Dropout)          (None, 100)               0         
_________________________________________________________________
dense_2 (Dense)              (None, 50)                5050      
_________________________________________________________________
batch_normalization_1 (Batch (None, 50)                200       
_________________________________________________________________
activation_2 (Activation)    (None, 50)                0         
_________________________________________________________________
dense_3 (Dense)              (None, 10)                510       
_________________________________________________________________
activation_3 (Activation)    (None, 10)                0         
_________________________________________________________________
dense_4 (Dense)              (None, 1)                 11        
=================================================================
Total params: 892,419
Trainable params: 892,319
Non-trainable params: 100
_________________________________________________________________
Start training with data from directory:  ../data
Epoch 1/10
2019-08-10 22:45:46.539448: W tensorflow/core/platform/cpu_feature_guard.cc:45] The TensorFlow library wasn't compiled to use SSE4.1 instructions, but these are available on your machine and could speed up CPU computations.
…
