…
W0811 01:01:43.699166 139923755521856 deprecation_wrapper.py:119] From /home/said/anaconda3/envs/carnd-term1/lib/python3.5/site-packages/keras/backend/tensorflow_backend.py:4138: The name tf.random_uniform is deprecated. Please use tf.random.uniform instead.

W0811 01:01:43.707103 139923755521856 deprecation_wrapper.py:119] From /home/said/anaconda3/envs/carnd-term1/lib/python3.5/site-packages/keras/backend/tensorflow_backend.py:3976: The name tf.nn.max_pool is deprecated. Please use tf.nn.max_pool2d instead.

_________________________________________________________________
Layer (type)                 Output Shape              Param #   
=================================================================
cropping2d_1 (Cropping2D)    (None, 50, 280, 3)        0         
_________________________________________________________________
lambda_1 (Lambda)            (None, 50, 280, 3)        0         
_________________________________________________________________
dropout_1 (Dropout)          (None, 50, 280, 3)        0         
_________________________________________________________________
conv2d_1 (Conv2D)            (None, 48, 278, 12)       336       
_________________________________________________________________
max_pooling2d_1 (MaxPooling2 (None, 24, 139, 12)       0         
_________________________________________________________________
conv2d_2 (Conv2D)            (None, 22, 137, 32)       3488      
_________________________________________________________________
max_pooling2d_2 (MaxPooling2 (None, 11, 68, 32)        0         
_________________________________________________________________
flatten_1 (Flatten)          (None, 23936)             0         
_________________________________________________________________
dropout_2 (Dropout)          (None, 23936)             0         
_________________________________________________________________
dense_1 (Dense)              (None, 120)               2872440   
_________________________________________________________________
batch_normalization_1 (Batch (None, 120)               480       
_________________________________________________________________
dense_2 (Dense)              (None, 84)                10164     
_________________________________________________________________
dense_3 (Dense)              (None, 1)                 85        
=================================================================
Total params: 2,886,993
Trainable params: 2,886,753
Non-trainable params: 240
_________________________________________________________________
Start training with data from directory:  ../../Data/data
Start training with data from directory:  ../../Data/custom2
Start training with data from directory:  ../../Data/custom1
W0811 01:01:44.029404 139923755521856 deprecation_wrapper.py:119] From /home/said/anaconda3/envs/carnd-term1/lib/python3.5/site-packages/keras/optimizers.py:790: The name tf.train.Optimizer is deprecated. Please use tf.compat.v1.train.Optimizer instead.
…
