…
Instructions for updating:
Please use `rate` instead of `keep_prob`. Rate should be set to `rate = 1 - keep_prob`.
W0804 01:15:33.583507 139860280801088 deprecation_wrapper.py:119] From /home/said/anaconda3/envs/carnd-term1/lib/python3.5/site-packages/keras/backend/tensorflow_backend.py:4138: The name tf.random_uniform is deprecated. Please use tf.random.uniform instead.

_________________________________________________________________
Layer (type)                 Output Shape              Param #   
=================================================================
cropping2d_1 (Cropping2D)    (None, 50, 280, 3)        0         
_________________________________________________________________
lambda_1 (Lambda)            (None, 50, 280, 3)        0         
_________________________________________________________________
dropout_1 (Dropout)          (None, 50, 280, 3)        0         
_________________________________________________________________
conv2d_1 (Conv2D)            (None, 23, 138, 12)       912       
_________________________________________________________________
conv2d_2 (Conv2D)            (None, 10, 67, 18)        5418      
_________________________________________________________________
conv2d_3 (Conv2D)            (None, 6, 63, 24)         10824     
_________________________________________________________________
conv2d_4 (Conv2D)            (None, 4, 61, 32)         6944      
_________________________________________________________________
conv2d_5 (Conv2D)            (None, 2, 59, 32)         9248      
_________________________________________________________________
flatten_1 (Flatten)          (None, 3776)              0         
_________________________________________________________________
dropout_2 (Dropout)          (None, 3776)              0         
_________________________________________________________________
dense_1 (Dense)              (None, 50)                188850    
_________________________________________________________________
activation_1 (Activation)    (None, 50)                0         
_________________________________________________________________
dropout_3 (Dropout)          (None, 50)                0         
_________________________________________________________________
dense_2 (Dense)              (None, 25)                1275      
_________________________________________________________________
batch_normalization_1 (Batch (None, 25)                100       
_________________________________________________________________
activation_2 (Activation)    (None, 25)                0         
_________________________________________________________________
dense_3 (Dense)              (None, 10)                260       
_________________________________________________________________
activation_3 (Activation)    (None, 10)                0         
_________________________________________________________________
dense_4 (Dense)              (None, 1)                 11        
=================================================================
Total params: 223,842
Trainable params: 223,792
Non-trainable params: 50
_________________________________________________________________
Start training with data from directory:  ../Data/data
Start training with data from directory:  ../Data/custom2
Start training with data from directory:  ../Data/custom1
W0804 01:15:34.263098 139860280801088 deprecation_wrapper.py:119] From /home/said/anaconda3/envs/carnd-term1/lib/python3.5/site-packages/keras/optimizers.py:790: The name tf.train.Optimizer is deprecated. Please use tf.compat.v1.train.Optimizer instead.
…
