(/opt/carnd_p3/behavioral) root@ab70564d4946:/home/workspace/CarND-Behavioral-Cloning-P3/lenet_data# python ../model.py -m lenet -d ../data
Using TensorFlow backend.
Training data will be taken from:  ../data
Output file is  model_lenet  +.h5
Please confirm with "Y"!  :: Y
1 directory as input data found.
../data
_________________________________________________________________
Layer (type)                 Output Shape              Param #   
=================================================================
cropping2d_1 (Cropping2D)    (None, 50, 280, 3)        0         
_________________________________________________________________
lambda_1 (Lambda)            (None, 50, 280, 3)        0         
_________________________________________________________________
dropout_1 (Dropout)          (None, 50, 280, 3)        0         
_________________________________________________________________
conv2d_1 (Conv2D)            (None, 48, 278, 12)       336       
_________________________________________________________________
max_pooling2d_1 (MaxPooling2 (None, 24, 139, 12)       0         
_________________________________________________________________
conv2d_2 (Conv2D)            (None, 22, 137, 32)       3488      
_________________________________________________________________
max_pooling2d_2 (MaxPooling2 (None, 11, 68, 32)        0         
_________________________________________________________________
flatten_1 (Flatten)          (None, 23936)             0         
_________________________________________________________________
dropout_2 (Dropout)          (None, 23936)             0         
_________________________________________________________________
dense_1 (Dense)              (None, 120)               2872440   
_________________________________________________________________
batch_normalization_1 (Batch (None, 120)               480       
_________________________________________________________________
dense_2 (Dense)              (None, 84)                10164     
_________________________________________________________________
dense_3 (Dense)              (None, 1)                 85        
=================================================================
Total params: 2,886,993
Trainable params: 2,886,753
Non-trainable params: 240
_________________________________________________________________
Start training with data from directory:  ../data
Epoch 1/10
2019-08-10 23:14:30.822389: W tensorflow/core/platform/cpu_feature_guard.cc:45] The TensorFlow library wasn't compiled to use SSE4.1 instructions, but these are available on your machine and could speed up CPU computations.
…
