1 directory as input data found.
../data
_________________________________________________________________
Layer (type)                 Output Shape              Param #   
=================================================================
cropping2d_1 (Cropping2D)    (None, 50, 280, 3)        0         
_________________________________________________________________
lambda_1 (Lambda)            (None, 50, 280, 3)        0         
_________________________________________________________________
dropout_1 (Dropout)          (None, 50, 280, 3)        0         
_________________________________________________________________
conv2d_1 (Conv2D)            (None, 23, 138, 24)       1824      
_________________________________________________________________
conv2d_2 (Conv2D)            (None, 10, 67, 36)        21636     
_________________________________________________________________
conv2d_3 (Conv2D)            (None, 6, 63, 48)         43248     
_________________________________________________________________
conv2d_4 (Conv2D)            (None, 4, 61, 64)         27712     
_________________________________________________________________
conv2d_5 (Conv2D)            (None, 2, 59, 64)         36928     
_________________________________________________________________
flatten_1 (Flatten)          (None, 7552)              0         
_________________________________________________________________
dropout_2 (Dropout)          (None, 7552)              0         
_________________________________________________________________
dense_1 (Dense)              (None, 50)                377650    
_________________________________________________________________
activation_1 (Activation)    (None, 50)                0         
_________________________________________________________________
dropout_3 (Dropout)          (None, 50)                0         
_________________________________________________________________
dense_2 (Dense)              (None, 25)                1275      
_________________________________________________________________
batch_normalization_1 (Batch (None, 25)                100       
_________________________________________________________________
activation_2 (Activation)    (None, 25)                0         
_________________________________________________________________
dense_3 (Dense)              (None, 10)                260       
_________________________________________________________________
activation_3 (Activation)    (None, 10)                0         
_________________________________________________________________
dense_4 (Dense)              (None, 1)                 11        
=================================================================
Total params: 510,644
Trainable params: 510,594
Non-trainable params: 50
_________________________________________________________________
Start training with data from directory:  ../data
Epoch 1/10
2019-08-07 14:22:37.472067: W tensorflow/core/platform/cpu_feature_guard.cc:45] The TensorFlow library wasn't compiled to use SSE4.1 instructions, but these are available on your machine and could speed up CPU computations.
…
