…
You should consider upgrading via the 'pip install --upgrade pip' command.
(/opt/carnd_p3/behavioral) root@03291d45754a:/home/workspace/CarND-Behavioral-Cloning-P3/lenet_data_b# python model.py -m lenet -d ../data
Using TensorFlow backend.
Training data will be taken from:  ../data
Output file is  model_lenet  +.h5
Please confirm with "Y"!  :: Y
1 directory as input data found.
../data
_________________________________________________________________
Layer (type)                 Output Shape              Param #   
=================================================================
cropping2d_1 (Cropping2D)    (None, 50, 280, 3)        0         
_________________________________________________________________
lambda_1 (Lambda)            (None, 50, 280, 3)        0         
_________________________________________________________________
dropout_1 (Dropout)          (None, 50, 280, 3)        0         
_________________________________________________________________
conv2d_1 (Conv2D)            (None, 48, 278, 6)        168       
_________________________________________________________________
max_pooling2d_1 (MaxPooling2 (None, 24, 139, 6)        0         
_________________________________________________________________
conv2d_2 (Conv2D)            (None, 22, 137, 16)       880       
_________________________________________________________________
max_pooling2d_2 (MaxPooling2 (None, 11, 68, 16)        0         
_________________________________________________________________
flatten_1 (Flatten)          (None, 11968)             0         
_________________________________________________________________
dropout_2 (Dropout)          (None, 11968)             0         
_________________________________________________________________
batch_normalization_1 (Batch (None, 11968)             47872     
_________________________________________________________________
dense_1 (Dense)              (None, 120)               1436280   
_________________________________________________________________
dense_2 (Dense)              (None, 84)                10164     
_________________________________________________________________
dense_3 (Dense)              (None, 1)                 85        
=================================================================
Total params: 1,495,449
Trainable params: 1,471,513
Non-trainable params: 23,936
_________________________________________________________________
Start training with data from directory:  ../data
Epoch 1/10
2019-08-07 13:41:47.720722: W tensorflow/core/platform/cpu_feature_guard.cc:45] The TensorFlow library wasn't compiled to use SSE4.1 instructions, but these are available on your machine and could speed up CPU computations.
…
